…
[0.8952380952380953, 0.8505481823427582, 0.8208955223880597, 0.6498516320474778, 0.37857577601947656, 0.5265188042430087, 0.8833333333333333, 0.6826503923278117, 0.3574468085106383]

Stage 1 2 f1-score (custom): 0.6551974169203674
[0.8721007289595759, 0.8318284424379232, 0.7840342124019958, 0.7088525651399903, 0.3232176262731241, 0.481651376146789, 0.8559892328398385, 0.7140251687032646, 0.32507739938080493] 


_________________________________________________________________
Layer (type)                 Output Shape              Param #   
=================================================================
input_1 (InputLayer)         (None, 120, 18)           0         
_________________________________________________________________
masking_1 (Masking)          (None, 120, 18)           0         
_________________________________________________________________
bidirectional_1 (Bidirection (None, 120, 60)           11760     
_________________________________________________________________
batch_normalization_1 (Batch (None, 120, 60)           240       
_________________________________________________________________
leaky_re_lu_1 (LeakyReLU)    (None, 120, 60)           0         
_________________________________________________________________
bidirectional_2 (Bidirection (None, 60)                21840     
_________________________________________________________________
batch_normalization_2 (Batch (None, 60)                240       
_________________________________________________________________
leaky_re_lu_2 (LeakyReLU)    (None, 60)                0         
_________________________________________________________________
dense_1 (Dense)              (None, 9)                 549       
=================================================================
Total params: 34,629
Trainable params: 34,389
Non-trainable params: 240
_________________________________________________________________
Train on 5501 samples, validate on 1376 samples
Epoch 1/30
 - 60s - loss: 0.2300 - categorical_accuracy: 0.7640 - val_loss: 0.1327 - val_categorical_accuracy: 0.7907
Epoch 2/30
 - 52s - loss: 0.1285 - categorical_accuracy: 0.7926 - val_loss: 0.1253 - val_categorical_accuracy: 0.7994
…
